…
==PROF== Connected to process 214602 (/usr/bin/python3.8)
Net(
  (conv1): Conv2d(1, 32, kernel_size=(3, 3), stride=(1, 1))
  (conv2): Conv2d(32, 64, kernel_size=(3, 3), stride=(1, 1))
  (dropout1): Dropout(p=0.25, inplace=False)
  (dropout2): Dropout(p=0.5, inplace=False)
  (fc1): Linear(in_features=9216, out_features=128, bias=True)
  (fc2): Linear(in_features=128, out_features=10, bias=True)
)
----------------------------------------------------------------
        Layer (type)               Output Shape         Param #
================================================================
            Conv2d-1           [-1, 32, 26, 26]             320
            Conv2d-2           [-1, 64, 24, 24]          18,496
           Dropout-3           [-1, 64, 12, 12]               0
            Linear-4                  [-1, 128]       1,179,776
           Dropout-5                  [-1, 128]               0
            Linear-6                   [-1, 10]           1,290
================================================================
Total params: 1,199,882
Trainable params: 1,199,882
Non-trainable params: 0
----------------------------------------------------------------
Input size (MB): 0.00
Forward/backward pass size (MB): 0.52
Params size (MB): 4.58
Estimated Total Size (MB): 5.10
----------------------------------------------------------------
Train Epoch: 1 [0/60000 (0%)]	Loss: 2.219143
…
